…
loading bin 11000
loading bin 12000
loading bin 13000
torch.Size([14000, 3, 112, 112])
ver cfp_fp
loading bin 0
loading bin 1000
loading bin 2000
loading bin 3000
loading bin 4000
loading bin 5000
loading bin 6000
loading bin 7000
loading bin 8000
loading bin 9000
loading bin 10000
loading bin 11000
torch.Size([12000, 3, 112, 112])
ver agedb_30
self.device_id [0, 1, 2, 3]
self.device_id [0, 1, 2, 3]
self.device_id [0, 1, 2, 3]
============================================================
ViTs_face(
  (soft_split): Unfold(kernel_size=(10, 10), dilation=1, padding=(1, 1), stride=(8, 8))
  (patch_to_embedding): Linear(in_features=300, out_features=512, bias=True)
  (dropout): Dropout(p=0.1, inplace=False)
  (transformer): Transformer(
    (layers): ModuleList(
      (0): ModuleList(
        (0): Residual(
          (fn): PreNorm(
            (norm): LayerNorm((512,), eps=1e-05, elementwise_affine=True)
            (fn): Attention(
              (to_qkv): Linear(in_features=512, out_features=1536, bias=False)
              (to_out): Sequential(
                (0): Linear(in_features=512, out_features=512, bias=True)
                (1): Dropout(p=0.1, inplace=False)
              )
            )
          )
        )
        (1): Residual(
          (fn): PreNorm(
            (norm): LayerNorm((512,), eps=1e-05, elementwise_affine=True)
            (fn): FeedForward(
              (net): Sequential(
                (0): Linear(in_features=512, out_features=2048, bias=True)
                (1): GELU()
                (2): Dropout(p=0.1, inplace=False)
                (3): Linear(in_features=2048, out_features=512, bias=True)
                (4): Dropout(p=0.1, inplace=False)
              )
            )
          )
        )
      )
      (1): ModuleList(
        (0): Residual(
          (fn): PreNorm(
            (norm): LayerNorm((512,), eps=1e-05, elementwise_affine=True)
            (fn): Attention(
              (to_qkv): Linear(in_features=512, out_features=1536, bias=False)
              (to_out): Sequential(
                (0): Linear(in_features=512, out_features=512, bias=True)
                (1): Dropout(p=0.1, inplace=False)
              )
            )
          )
        )
        (1): Residual(
          (fn): PreNorm(
            (norm): LayerNorm((512,), eps=1e-05, elementwise_affine=True)
            (fn): FeedForward(
              (net): Sequential(
                (0): Linear(in_features=512, out_features=2048, bias=True)
                (1): GELU()
                (2): Dropout(p=0.1, inplace=False)
                (3): Linear(in_features=2048, out_features=512, bias=True)
                (4): Dropout(p=0.1, inplace=False)
              )
            )
          )
        )
      )
      (2): ModuleList(
        (0): Residual(
          (fn): PreNorm(
            (norm): LayerNorm((512,), eps=1e-05, elementwise_affine=True)
            (fn): Attention(
              (to_qkv): Linear(in_features=512, out_features=1536, bias=False)
              (to_out): Sequential(
                (0): Linear(in_features=512, out_features=512, bias=True)
                (1): Dropout(p=0.1, inplace=False)
              )
            )
          )
        )
        (1): Residual(
          (fn): PreNorm(
            (norm): LayerNorm((512,), eps=1e-05, elementwise_affine=True)
            (fn): FeedForward(
              (net): Sequential(
                (0): Linear(in_features=512, out_features=2048, bias=True)
                (1): GELU()
                (2): Dropout(p=0.1, inplace=False)
                (3): Linear(in_features=2048, out_features=512, bias=True)
                (4): Dropout(p=0.1, inplace=False)
              )
            )
          )
        )
      )
      (3): ModuleList(
        (0): Residual(
          (fn): PreNorm(
            (norm): LayerNorm((512,), eps=1e-05, elementwise_affine=True)
            (fn): Attention(
              (to_qkv): Linear(in_features=512, out_features=1536, bias=False)
              (to_out): Sequential(
                (0): Linear(in_features=512, out_features=512, bias=True)
                (1): Dropout(p=0.1, inplace=False)
              )
            )
          )
        )
        (1): Residual(
          (fn): PreNorm(
            (norm): LayerNorm((512,), eps=1e-05, elementwise_affine=True)
            (fn): FeedForward(
              (net): Sequential(
                (0): Linear(in_features=512, out_features=2048, bias=True)
                (1): GELU()
                (2): Dropout(p=0.1, inplace=False)
                (3): Linear(in_features=2048, out_features=512, bias=True)
                (4): Dropout(p=0.1, inplace=False)
              )
            )
          )
        )
      )
      (4): ModuleList(
        (0): Residual(
          (fn): PreNorm(
            (norm): LayerNorm((512,), eps=1e-05, elementwise_affine=True)
            (fn): Attention(
              (to_qkv): Linear(in_features=512, out_features=1536, bias=False)
              (to_out): Sequential(
                (0): Linear(in_features=512, out_features=512, bias=True)
                (1): Dropout(p=0.1, inplace=False)
              )
            )
          )
        )
        (1): Residual(
          (fn): PreNorm(
            (norm): LayerNorm((512,), eps=1e-05, elementwise_affine=True)
            (fn): FeedForward(
              (net): Sequential(
                (0): Linear(in_features=512, out_features=2048, bias=True)
                (1): GELU()
                (2): Dropout(p=0.1, inplace=False)
                (3): Linear(in_features=2048, out_features=512, bias=True)
                (4): Dropout(p=0.1, inplace=False)
              )
            )
          )
        )
      )
      (5): ModuleList(
        (0): Residual(
          (fn): PreNorm(
            (norm): LayerNorm((512,), eps=1e-05, elementwise_affine=True)
            (fn): Attention(
              (to_qkv): Linear(in_features=512, out_features=1536, bias=False)
              (to_out): Sequential(
                (0): Linear(in_features=512, out_features=512, bias=True)
                (1): Dropout(p=0.1, inplace=False)
              )
            )
          )
        )
        (1): Residual(
          (fn): PreNorm(
            (norm): LayerNorm((512,), eps=1e-05, elementwise_affine=True)
            (fn): FeedForward(
              (net): Sequential(
                (0): Linear(in_features=512, out_features=2048, bias=True)
                (1): GELU()
                (2): Dropout(p=0.1, inplace=False)
                (3): Linear(in_features=2048, out_features=512, bias=True)
                (4): Dropout(p=0.1, inplace=False)
              )
            )
          )
        )
      )
      (6): ModuleList(
        (0): Residual(
          (fn): PreNorm(
            (norm): LayerNorm((512,), eps=1e-05, elementwise_affine=True)
            (fn): Attention(
              (to_qkv): Linear(in_features=512, out_features=1536, bias=False)
              (to_out): Sequential(
                (0): Linear(in_features=512, out_features=512, bias=True)
                (1): Dropout(p=0.1, inplace=False)
              )
            )
          )
        )
        (1): Residual(
          (fn): PreNorm(
            (norm): LayerNorm((512,), eps=1e-05, elementwise_affine=True)
            (fn): FeedForward(
              (net): Sequential(
                (0): Linear(in_features=512, out_features=2048, bias=True)
                (1): GELU()
                (2): Dropout(p=0.1, inplace=False)
                (3): Linear(in_features=2048, out_features=512, bias=True)
                (4): Dropout(p=0.1, inplace=False)
              )
            )
          )
        )
      )
      (7): ModuleList(
        (0): Residual(
          (fn): PreNorm(
            (norm): LayerNorm((512,), eps=1e-05, elementwise_affine=True)
            (fn): Attention(
              (to_qkv): Linear(in_features=512, out_features=1536, bias=False)
              (to_out): Sequential(
                (0): Linear(in_features=512, out_features=512, bias=True)
                (1): Dropout(p=0.1, inplace=False)
              )
            )
          )
        )
        (1): Residual(
          (fn): PreNorm(
            (norm): LayerNorm((512,), eps=1e-05, elementwise_affine=True)
            (fn): FeedForward(
              (net): Sequential(
                (0): Linear(in_features=512, out_features=2048, bias=True)
                (1): GELU()
                (2): Dropout(p=0.1, inplace=False)
                (3): Linear(in_features=2048, out_features=512, bias=True)
                (4): Dropout(p=0.1, inplace=False)
              )
            )
          )
        )
      )
      (8): ModuleList(
        (0): Residual(
          (fn): PreNorm(
            (norm): LayerNorm((512,), eps=1e-05, elementwise_affine=True)
            (fn): Attention(
              (to_qkv): Linear(in_features=512, out_features=1536, bias=False)
              (to_out): Sequential(
                (0): Linear(in_features=512, out_features=512, bias=True)
                (1): Dropout(p=0.1, inplace=False)
              )
            )
          )
        )
        (1): Residual(
          (fn): PreNorm(
            (norm): LayerNorm((512,), eps=1e-05, elementwise_affine=True)
            (fn): FeedForward(
              (net): Sequential(
                (0): Linear(in_features=512, out_features=2048, bias=True)
                (1): GELU()
                (2): Dropout(p=0.1, inplace=False)
                (3): Linear(in_features=2048, out_features=512, bias=True)
                (4): Dropout(p=0.1, inplace=False)
              )
            )
          )
        )
      )
      (9): ModuleList(
        (0): Residual(
          (fn): PreNorm(
            (norm): LayerNorm((512,), eps=1e-05, elementwise_affine=True)
            (fn): Attention(
              (to_qkv): Linear(in_features=512, out_features=1536, bias=False)
              (to_out): Sequential(
                (0): Linear(in_features=512, out_features=512, bias=True)
                (1): Dropout(p=0.1, inplace=False)
              )
            )
          )
        )
        (1): Residual(
          (fn): PreNorm(
            (norm): LayerNorm((512,), eps=1e-05, elementwise_affine=True)
            (fn): FeedForward(
              (net): Sequential(
                (0): Linear(in_features=512, out_features=2048, bias=True)
                (1): GELU()
                (2): Dropout(p=0.1, inplace=False)
                (3): Linear(in_features=2048, out_features=512, bias=True)
                (4): Dropout(p=0.1, inplace=False)
              )
            )
          )
        )
      )
      (10): ModuleList(
        (0): Residual(
          (fn): PreNorm(
            (norm): LayerNorm((512,), eps=1e-05, elementwise_affine=True)
            (fn): Attention(
              (to_qkv): Linear(in_features=512, out_features=1536, bias=False)
              (to_out): Sequential(
                (0): Linear(in_features=512, out_features=512, bias=True)
                (1): Dropout(p=0.1, inplace=False)
              )
            )
          )
        )
        (1): Residual(
          (fn): PreNorm(
            (norm): LayerNorm((512,), eps=1e-05, elementwise_affine=True)
            (fn): FeedForward(
              (net): Sequential(
                (0): Linear(in_features=512, out_features=2048, bias=True)
                (1): GELU()
                (2): Dropout(p=0.1, inplace=False)
                (3): Linear(in_features=2048, out_features=512, bias=True)
                (4): Dropout(p=0.1, inplace=False)
              )
            )
          )
        )
      )
      (11): ModuleList(
        (0): Residual(
          (fn): PreNorm(
            (norm): LayerNorm((512,), eps=1e-05, elementwise_affine=True)
            (fn): Attention(
              (to_qkv): Linear(in_features=512, out_features=1536, bias=False)
              (to_out): Sequential(
                (0): Linear(in_features=512, out_features=512, bias=True)
                (1): Dropout(p=0.1, inplace=False)
              )
            )
          )
        )
        (1): Residual(
          (fn): PreNorm(
            (norm): LayerNorm((512,), eps=1e-05, elementwise_affine=True)
            (fn): FeedForward(
              (net): Sequential(
                (0): Linear(in_features=512, out_features=2048, bias=True)
                (1): GELU()
                (2): Dropout(p=0.1, inplace=False)
                (3): Linear(in_features=2048, out_features=512, bias=True)
                (4): Dropout(p=0.1, inplace=False)
              )
            )
          )
        )
      )
      (12): ModuleList(
        (0): Residual(
          (fn): PreNorm(
            (norm): LayerNorm((512,), eps=1e-05, elementwise_affine=True)
            (fn): Attention(
              (to_qkv): Linear(in_features=512, out_features=1536, bias=False)
              (to_out): Sequential(
                (0): Linear(in_features=512, out_features=512, bias=True)
                (1): Dropout(p=0.1, inplace=False)
              )
            )
          )
        )
        (1): Residual(
          (fn): PreNorm(
            (norm): LayerNorm((512,), eps=1e-05, elementwise_affine=True)
            (fn): FeedForward(
              (net): Sequential(
                (0): Linear(in_features=512, out_features=2048, bias=True)
                (1): GELU()
                (2): Dropout(p=0.1, inplace=False)
                (3): Linear(in_features=2048, out_features=512, bias=True)
                (4): Dropout(p=0.1, inplace=False)
              )
            )
          )
        )
      )
      (13): ModuleList(
        (0): Residual(
          (fn): PreNorm(
            (norm): LayerNorm((512,), eps=1e-05, elementwise_affine=True)
            (fn): Attention(
              (to_qkv): Linear(in_features=512, out_features=1536, bias=False)
              (to_out): Sequential(
                (0): Linear(in_features=512, out_features=512, bias=True)
                (1): Dropout(p=0.1, inplace=False)
              )
            )
          )
        )
        (1): Residual(
          (fn): PreNorm(
            (norm): LayerNorm((512,), eps=1e-05, elementwise_affine=True)
            (fn): FeedForward(
              (net): Sequential(
                (0): Linear(in_features=512, out_features=2048, bias=True)
                (1): GELU()
                (2): Dropout(p=0.1, inplace=False)
                (3): Linear(in_features=2048, out_features=512, bias=True)
                (4): Dropout(p=0.1, inplace=False)
              )
            )
          )
        )
      )
      (14): ModuleList(
        (0): Residual(
          (fn): PreNorm(
            (norm): LayerNorm((512,), eps=1e-05, elementwise_affine=True)
            (fn): Attention(
              (to_qkv): Linear(in_features=512, out_features=1536, bias=False)
              (to_out): Sequential(
                (0): Linear(in_features=512, out_features=512, bias=True)
                (1): Dropout(p=0.1, inplace=False)
              )
            )
          )
        )
        (1): Residual(
          (fn): PreNorm(
            (norm): LayerNorm((512,), eps=1e-05, elementwise_affine=True)
            (fn): FeedForward(
              (net): Sequential(
                (0): Linear(in_features=512, out_features=2048, bias=True)
                (1): GELU()
                (2): Dropout(p=0.1, inplace=False)
                (3): Linear(in_features=2048, out_features=512, bias=True)
                (4): Dropout(p=0.1, inplace=False)
              )
            )
          )
        )
      )
      (15): ModuleList(
        (0): Residual(
          (fn): PreNorm(
            (norm): LayerNorm((512,), eps=1e-05, elementwise_affine=True)
            (fn): Attention(
              (to_qkv): Linear(in_features=512, out_features=1536, bias=False)
              (to_out): Sequential(
                (0): Linear(in_features=512, out_features=512, bias=True)
                (1): Dropout(p=0.1, inplace=False)
              )
            )
          )
        )
        (1): Residual(
          (fn): PreNorm(
            (norm): LayerNorm((512,), eps=1e-05, elementwise_affine=True)
            (fn): FeedForward(
              (net): Sequential(
                (0): Linear(in_features=512, out_features=2048, bias=True)
                (1): GELU()
                (2): Dropout(p=0.1, inplace=False)
                (3): Linear(in_features=2048, out_features=512, bias=True)
                (4): Dropout(p=0.1, inplace=False)
              )
            )
          )
        )
      )
      (16): ModuleList(
        (0): Residual(
          (fn): PreNorm(
            (norm): LayerNorm((512,), eps=1e-05, elementwise_affine=True)
            (fn): Attention(
              (to_qkv): Linear(in_features=512, out_features=1536, bias=False)
              (to_out): Sequential(
                (0): Linear(in_features=512, out_features=512, bias=True)
                (1): Dropout(p=0.1, inplace=False)
              )
            )
          )
        )
        (1): Residual(
          (fn): PreNorm(
            (norm): LayerNorm((512,), eps=1e-05, elementwise_affine=True)
            (fn): FeedForward(
              (net): Sequential(
                (0): Linear(in_features=512, out_features=2048, bias=True)
                (1): GELU()
                (2): Dropout(p=0.1, inplace=False)
                (3): Linear(in_features=2048, out_features=512, bias=True)
                (4): Dropout(p=0.1, inplace=False)
              )
            )
          )
        )
      )
      (17): ModuleList(
        (0): Residual(
          (fn): PreNorm(
            (norm): LayerNorm((512,), eps=1e-05, elementwise_affine=True)
            (fn): Attention(
              (to_qkv): Linear(in_features=512, out_features=1536, bias=False)
              (to_out): Sequential(
                (0): Linear(in_features=512, out_features=512, bias=True)
                (1): Dropout(p=0.1, inplace=False)
              )
            )
          )
        )
        (1): Residual(
          (fn): PreNorm(
            (norm): LayerNorm((512,), eps=1e-05, elementwise_affine=True)
            (fn): FeedForward(
              (net): Sequential(
                (0): Linear(in_features=512, out_features=2048, bias=True)
                (1): GELU()
                (2): Dropout(p=0.1, inplace=False)
                (3): Linear(in_features=2048, out_features=512, bias=True)
                (4): Dropout(p=0.1, inplace=False)
              )
            )
          )
        )
      )
      (18): ModuleList(
        (0): Residual(
          (fn): PreNorm(
            (norm): LayerNorm((512,), eps=1e-05, elementwise_affine=True)
            (fn): Attention(
              (to_qkv): Linear(in_features=512, out_features=1536, bias=False)
              (to_out): Sequential(
                (0): Linear(in_features=512, out_features=512, bias=True)
                (1): Dropout(p=0.1, inplace=False)
              )
            )
          )
        )
        (1): Residual(
          (fn): PreNorm(
            (norm): LayerNorm((512,), eps=1e-05, elementwise_affine=True)
            (fn): FeedForward(
              (net): Sequential(
                (0): Linear(in_features=512, out_features=2048, bias=True)
                (1): GELU()
                (2): Dropout(p=0.1, inplace=False)
                (3): Linear(in_features=2048, out_features=512, bias=True)
                (4): Dropout(p=0.1, inplace=False)
              )
            )
          )
        )
      )
      (19): ModuleList(
        (0): Residual(
          (fn): PreNorm(
            (norm): LayerNorm((512,), eps=1e-05, elementwise_affine=True)
            (fn): Attention(
              (to_qkv): Linear(in_features=512, out_features=1536, bias=False)
              (to_out): Sequential(
                (0): Linear(in_features=512, out_features=512, bias=True)
                (1): Dropout(p=0.1, inplace=False)
              )
            )
          )
        )
        (1): Residual(
          (fn): PreNorm(
            (norm): LayerNorm((512,), eps=1e-05, elementwise_affine=True)
            (fn): FeedForward(
              (net): Sequential(
                (0): Linear(in_features=512, out_features=2048, bias=True)
                (1): GELU()
                (2): Dropout(p=0.1, inplace=False)
                (3): Linear(in_features=2048, out_features=512, bias=True)
                (4): Dropout(p=0.1, inplace=False)
              )
            )
          )
        )
      )
    )
  )
  (to_latent): Identity()
  (mlp_head): Sequential(
    (0): LayerNorm((512,), eps=1e-05, elementwise_affine=True)
  )
  (loss): CosFace(in_features = 512, out_features = 93431, s = 64.0, m = 0.35)
)
VITs Backbone Generated
============================================================
============================================================
CrossEntropyLoss()
Softmax Loss Generated
============================================================
============================================================
…
